gcn_model10000BatchLR0.001SCHED.pth (torch, 3024 bytes, 4 tensors)

gc1.weight f4 [2, 32]
0	0xba8db9e7	-0.001081285
1	0x3d71948f	0.058979567
2	0xbe2ff2e3	-0.17182498
3	0xbe614706	-0.2199975
4	0xbdbaf335	-0.09128419
5	0xbd8dc9ca	-0.06923254
6	0xbdfbff29	-0.12304527
7	0xb95e4207	-0.00021196167
8	0xbdde8b02	-0.108663574
9	0x3d7cb6bc	0.061697707
10	0xbd0fade0	-0.03507793
11	0xbdc5bc39	-0.09655041
12	0x3d5b21ff	0.053499218
13	0x3d6d1b06	0.0578871
14	0xbd28774f	-0.041129407
15	0xbaef63a8	-0.0018263953
16	0x3db00589	0.08594806
17	0x3cba395c	0.02273243
18	0x3d7acc22	0.061229832
19	0x3d28addb	0.041181426
20	0xbc8349f5	-0.016026476
21	0x3d7e70d7	0.06211933
22	0x3c9ddd63	0.019270604
23	0x3d8778e5	0.06614856
24	0x3dc56438	0.09638256
25	0xbd95ef48	-0.0732103
26	0xbe26b88a	-0.16281334
27	0x3d2e67df	0.042579528
28	0x3c685632	0.014180707
29	0x3c49e5c1	0.012322844
30	0xbd9cc357	-0.076544456
31	0xbe19fa77	-0.15036951
32	0xbc9b0052	-0.018921051
33	0x3df48c8d	0.119408704
34	0xbd22ad12	-0.039715834
35	0xbc04147b	-0.008061524
36	0xbc2e2371	-0.010628567
37	0xbe0df8b0	-0.13864398
38	0xbb9fe2be	-0.0048793247
39	0xbc058286	-0.008148795
40	0xbd3a776e	-0.045524053
41	0xbe2b7485	-0.16743667
42	0x3df12a03	0.11775591
43	0xbd8cbc05	-0.068717994
44	0xbe3b1681	-0.18270303
45	0xbe22b29c	-0.15888447
46	0xbcca8482	-0.024721388
47	0xbc57a693	-0.013162273
48	0xbd1378f8	-0.036004037
49	0xbe4083c3	-0.18800263
50	0xbe20f24e	-0.15717432
51	0xbe282b74	-0.16422826
52	0xb9986488	-0.000290666
53	0x3d54a190	0.05191189
54	0xbde2c368	-0.11072427
55	0xbe3ceccb	-0.18449704
56	0xbe1fac03	-0.15592961
57	0x3b99cd00	0.0046936274
58	0x3c8b5219	0.01700692
59	0x3d21361b	0.03935824
60	0xbe1c7ab2	-0.1528118
61	0xbd83b92b	-0.06431802
62	0x3d018670	0.03162235
63	0xbe187fd4	-0.14892513

gc1.bias f4 [32]
0	0x3d26a37c	0.040683255
1	0xbd3cf440	-0.046131372
2	0x3d059c80	0.032619953
3	0x3d3630d8	0.044480175
4	0x3e3226b3	0.17397575
5	0xbd9bda39	-0.07609982
6	0x3d8734fa	0.06601901
7	0x3dc49d56	0.09600322
8	0xbdb5161e	-0.08842109
9	0x3e2f1839	0.17099084
10	0x3d890eb2	0.06692256
11	0xbd8c707b	-0.068573914
12	0x3e214535	0.15749057
13	0xbe10111a	-0.14069024
14	0x3e0faba7	0.14030324
15	0xbe020555	-0.12697347
16	0xbe2b9a31	-0.16758038
17	0xba00a200	-0.00049069524
18	0xbde3aa78	-0.11116499
19	0x3db5b6d6	0.08872764
20	0xbd6bc8ee	-0.05756467
21	0xbdcfbcb7	-0.101434164
22	0x3c2480b0	0.010040447
23	0xbd54b8e0	-0.051934123
24	0xbe0bfdfc	-0.13671106
25	0x3d0fbb34	0.03509064
26	0xbd932ec5	-0.07186655
27	0xbd1f5dfc	-0.03890799
28	0xbe08da96	-0.13364634
29	0x3e0c0a6b	0.13675849
30	0x3cb74398	0.022371098
31	0x3ce5d688	0.028056398

gc2.weight f4 [32, 2]
0	0xbddfab63	-0.10921361
1	0x3e7d6e8e	0.24749205
2	0x3ede5103	0.43421182
3	0x3ede5101	0.43421176
4	0x3e2f8b3f	0.17142962
5	0x3f23a8a7	0.6392922
6	0x3e82cc61	0.25546554
7	0x3f2a4f59	0.66527325
8	0x3ece0c55	0.40243784
9	0xbe1c0927	-0.15237866
10	0xbe98e26e	-0.29860252
11	0x3eca4f5b	0.39513668
12	0xbe984f8a	-0.29748183
13	0xbf0f3e1b	-0.5595414
14	0xbec76891	-0.38946965
15	0xbe09151b	-0.13386957
16	0xbe82b9be	-0.25532335
17	0xbf10ee49	-0.56613594
18	0x3f1e806f	0.61914724
19	0x3e59ccb3	0.21269493
20	0xbf1872ed	-0.5955036
21	0xbf1872ea	-0.59550345
22	0xbe44e480	-0.19227791
23	0xbed54dc4	-0.41660893
24	0x3e951e10	0.29124498
25	0xbf06f600	-0.52719116
26	0x3e6f992e	0.23398277
27	0xbe5381c3	-0.20654969
28	0xbf15cdaa	-0.58516943
29	0x3ece521f	0.40297028
30	0xbf21331e	-0.62968624
31	0xbe92feac	-0.28709924
32	0xbe58b8f7	-0.21164308
33	0xbe58b8f4	-0.21164304
34	0x3e7007c5	0.23440464
35	0xbeecd207	-0.46253988
36	0x3d67df30	0.056609333
37	0x3e8e4f1a	0.27794725
38	0x3ec487fd	0.38385
39	0xbea8a6fb	-0.32939896
40	0xbdb20cce	-0.086938486
41	0x3e750127	0.23926221
42	0x3e45bc18	0.19310033
43	0x3e45bc18	0.19310033
44	0xbf20258d	-0.625573
45	0x3f02746d	0.509589
46	0x3e5c7d7b	0.21532242
47	0x3f141570	0.5784521
48	0x3ec4548a	0.38345748
49	0x3ebe0456	0.37112683
50	0x3c908d31	0.01764545
51	0x3e669cf4	0.2252081
52	0xbd520aee	-0.051279955
53	0x3f1cab47	0.6119885
54	0xbe77df6b	-0.24206321
55	0xbe77df6c	-0.24206322
56	0x3ece6c89	0.4031718
57	0xbeac59c9	-0.3366225
58	0x3ef173f3	0.47158775
59	0x3f011db0	0.50435925
60	0x3ebc193c	0.36738002
61	0x3ebc1920	0.3673792
62	0xbebd38bf	-0.36957356
63	0x3f1e3b46	0.61809194

gc2.bias f4 [2]
0	0xbec837e2	-0.39105135
1	0x3ef2c97a	0.4741934
