gcn_model10000BatchLR1e-05SCHED.pth (torch, 3024 bytes, 4 tensors)

gc1.weight f4 [2, 32]
0	0x3dfdef01	0.12399102
1	0xbd3370e2	-0.043808825
2	0xbde73646	-0.11289649
3	0x3dcea6b3	0.10090389
4	0x3d8b6ed9	0.06808252
5	0x3dda2eaa	0.10653432
6	0xbe127ac8	-0.1430465
7	0xbe0ac0a8	-0.13550055
8	0x3e3048f0	0.17215323
9	0xbdb66bda	-0.0890729
10	0xbc00cb6b	-0.007860999
11	0xbde4aad3	-0.11165395
12	0x3e1e1aa4	0.1543985
13	0x3e0bb477	0.1364306
14	0xbdb488e2	-0.08815171
15	0x3c078d0f	0.008273377
16	0x3cd96750	0.026538521
17	0x3d7435ea	0.05962173
18	0xbde9d9cc	-0.114184946
19	0xbddd8db1	-0.10818041
20	0x3d80b95e	0.06285356
21	0xbcdc6ce1	-0.026907386
22	0x3d349d71	0.04409546
23	0x3d902940	0.07039118
24	0x3dbaa173	0.09112825
25	0xbd6c2ca4	-0.05765976
26	0x3d4b14c4	0.04958035
27	0x3d3460c4	0.044037595
28	0xbe1bf9ab	-0.1523196
29	0xbdf4beb4	-0.11950436
30	0xbdd6d07f	-0.10488986
31	0x3e275b46	0.16343412
32	0x3e2f3ebd	0.17113777
33	0xbd1eaddc	-0.038740024
34	0xbdcc3880	-0.09971714
35	0xbd769795	-0.060203154
36	0x3d9abd82	0.07555677
37	0xbc6fbde6	-0.014632678
38	0x3e15b6c6	0.14620504
39	0x3dd54f15	0.10415474
40	0x3d11eaee	0.035624437
41	0xbe17ee84	-0.1483708
42	0x3d1dc1e5	0.03851499
43	0x3e1c407f	0.15258978
44	0xbba8d635	-0.0051524886
45	0xbe2cd165	-0.16876753
46	0x3db204df	0.08692335
47	0x3c8bd8c6	0.017071139
48	0x3daba331	0.08380736
49	0x3e28aa99	0.16471328
50	0xbdf8538e	-0.12125312
51	0xbcc5ec21	-0.024160447
52	0x3df3502d	0.11880527
53	0x3c18e117	0.009331009
54	0xbcc9e88c	-0.02464702
55	0x3e115df7	0.14196001
56	0xbe028496	-0.1274589
57	0x3d5cdfab	0.053924244
58	0xbd417223	-0.04722799
59	0x3dba0bd0	0.09084284
60	0x3e13f125	0.14447458
61	0x3d2813e8	0.04103461
62	0xbda7668f	-0.081738584
63	0xbd344e05	-0.044019718

gc1.bias f4 [32]
0	0x3d80d060	0.062897444
1	0xbdade4db	-0.08490916
2	0x3d75c738	0.060004443
3	0x3de44b3e	0.11147164
4	0xbd79c718	-0.060980886
5	0x3d3bb950	0.045831025
6	0x3e28d70f	0.16488288
7	0xbdcc7266	-0.09982757
8	0xbdfca560	-0.1233623
9	0x3d3809e4	0.044931307
10	0x3d878bb4	0.06618443
11	0xbe19eb18	-0.15031087
12	0xbdfb0265	-0.12256316
13	0x3cd2dfa0	0.025741398
14	0x3e25ab87	0.16178714
15	0x3e23dd11	0.16002299
16	0xbd39bd04	-0.045346275
17	0xbe347ca5	-0.17625673
18	0xbcb0f6e8	-0.02160211
19	0x3d3bc848	0.0458453
20	0xbd14f360	-0.036364913
21	0xbd822ef5	-0.063566126
22	0xbe19dc60	-0.15025473
23	0x3e0debf5	0.13859542
24	0x3c928d80	0.017889738
25	0x3d8d4df0	0.06899631
26	0xbd1615f8	-0.036642045
27	0x3e30c4e7	0.17262612
28	0x3e237dbb	0.15965931
29	0xbd395e50	-0.04525596
30	0x3d2f339c	0.042773828
31	0xbdf3cafd	-0.11903951

gc2.weight f4 [32, 2]
0	0xbeee31f3	-0.46522483
1	0xbdcdb3ab	-0.100440346
2	0xbe7ef3d8	-0.24897707
3	0x3eab260a	0.3342746
4	0x3ebb4503	0.3657609
5	0x3b747517	0.0037301236
6	0xbe461a1b	-0.19345896
7	0x3e15160f	0.14559196
8	0x3ea5d5a8	0.3238957
9	0xbec75188	-0.3892939
10	0xbe5c2591	-0.21498705
11	0xbf04acab	-0.5182597
12	0x3f1243cc	0.571347
13	0x3f13a7b8	0.57677794
14	0xbf14c011	-0.5810557
15	0xbe7a8cb6	-0.2446774
16	0xbdc8fc8d	-0.09813795
17	0x3dd78d25	0.10524968
18	0x3decd79a	0.1156456
19	0x3d4e9662	0.050436385
20	0x3c951994	0.018200673
21	0xbde7244d	-0.11286221
22	0x3e953fdd	0.29150286
23	0xbedb23a1	-0.4280062
24	0x3e5099d4	0.20371181
25	0x3dc2e1a3	0.09515693
26	0x39cd7951	0.00039191035
27	0x3e05b4d6	0.13057265
28	0x3eaa2446	0.332308
29	0x3d8b3c83	0.06798651
30	0x3f29a4b2	0.6626693
31	0x3f2b51b2	0.6692153
32	0x3e9f4105	0.31104293
33	0x3ec48493	0.38382396
34	0xbe18cc55	-0.14921696
35	0xbec9beda	-0.3940342
36	0x3ede096d	0.43366566
37	0x3e72dfee	0.23718235
38	0xbe69a88a	-0.22818199
39	0x3e23d147	0.15997802
40	0xbc1ef637	-0.009702257
41	0x3ef7a71c	0.48369682
42	0x3e398af0	0.18119407
43	0xbf31ce18	-0.694551
44	0xbee6e683	-0.4509774
45	0x3e74d838	0.23910606
46	0x3df683c6	0.120368525
47	0xbf165333	-0.587207
48	0x3ed953ef	0.4244685
49	0x3ea7e690	0.32793093
50	0xbd996cc7	-0.07491451
51	0x3e66f21f	0.225533
52	0x3e0e23a7	0.13880788
53	0x3ecba3eb	0.39773497
54	0xbf1c18a5	-0.60975105
55	0x3ebe5249	0.37172154
56	0x3d01abe1	0.031658057
57	0xbeb347a1	-0.35015586
58	0x3d306296	0.04306277
59	0x3e9dea01	0.30842593
60	0xbf14af1c	-0.58079696
61	0x3e8b78e0	0.27240658
62	0xbf1ff07a	-0.62476313
63	0xbefdbf9f	-0.49560258

gc2.bias f4 [2]
0	0x3f276ead	0.6540325
1	0xbf296491	-0.6616908
