gcn_model20000BatchLR1e-05SCHED.pth (torch, 3024 bytes, 4 tensors)

gc1.weight f4 [2, 32]
0.16319947 -0.07806993 0.047698982 -0.15639897 0.011684646 0.06862626 -0.035290085 -0.121109314
0.018832479 -0.06642725 0.14475973 -0.07540315 0.08934708 -0.09058414 -0.14836465 -0.13588649
0.0039855614 0.012336073 -0.12493343 -0.044771563 0.13672492 -0.17551048 -0.004281693 -0.0613802
-0.039075155 -0.0606017 0.044704657 0.10388758 -0.059758868 -0.065492034 0.07768749 -0.00465619
0.09570143 -0.1085009 -0.055704642 0.12966745 0.08652541 0.12918128 -0.13706174 0.043192163
-0.15273896 0.10210129 -0.056071684 -0.07681651 -0.0903597 0.15370466 -0.007733172 0.10602033
-0.05425439 -0.15996975 -0.1147886 -0.00020539926 -0.06096411 0.12260983 0.045021318 -0.07168153
-0.15917431 0.109430425 -0.09087745 0.11614798 0.074716 0.121210136 -0.063585036 0.021462224
00000000: c31d 273e 21e3 9fbd 0260 433d 0d27 20be
00000010: f570 3f3c ed8b 8c3d 568c 10bd 2908 f8bd
00000020: 9246 9a3c 030b 88bd e53b 143e f76c 9abd
00000030: 9afb b63d 2d84 b9bd e7ec 17be d425 0bbe
00000040: 5099 823b 3e1d 4a3c 19dd ffbd 6362 37bd
00000050: 9e01 0c3e 05b9 33be 724d 8cbb ce69 7bbd
00000060: 450d 20bd 7d39 78bd 3b1c 373d 03c3 d43d
00000070: b7c5 74bd b020 86bd 9e1a 9f3d f492 98bb
00000080: 1dff c33d b835 debd 8d2a 64bd 8bc7 043e
00000090: 3c34 b13d 1948 043e ea59 0cbe 44ea 303d
000000a0: 9a67 1cbe 7b1a d13d 6cab 65bd f951 9dbd
000000b0: 820e b9bd c164 1d3e 8c66 fdbb 3021 d93d
000000c0: da39 5ebd 1ccf 23be 4916 ebbd 7260 57b9
000000d0: 81b5 79bd dd1a fb3d 4668 383d c4cd 92bd
000000e0: 97fe 22be 0f1d e03d f51d babd fede ed3d
000000f0: b404 993d 053d f83d df38 82bd 8cd1 af3c

gc1.bias f4 [32]
-0.094947554 -0.15413629 0.040531754 0.09595351 0.058285445 -0.07206829 0.02210787 0.15914507
-0.15355659 0.017758027 -0.08696855 -0.12840943 -0.019336045 -0.14441009 0.10009773 -0.03159243
-0.06119457 0.032354787 -0.03905365 0.11737634 0.14504908 -0.08182229 -0.10479285 0.07066071
0.016095906 -0.112673126 -0.06927646 0.13236396 -0.08602547 -0.14792688 -0.16988719 -0.08154067
00000000: dd73 c2bd e7d5 1dbe a004 263d 4683 c43d
00000010: b8bc 6e3d 8a98 93bd 901b b53c edf6 223e
00000020: f03d 1dbe 4879 913c 911c b2bd c37d 03be
00000030: a066 9ebc 3de0 13be 0a00 cd3d 1067 01bd
00000040: 28a7 7abd 7486 043d b8f6 1fbd 0263 f03d
00000050: bf87 143e 7292 a7bd a29d d6bd 90b6 903d
00000060: 90db 833c 2bc1 e6bd d1e0 8dbd 6b8a 073e
00000070: 1f2e b0bd 257a 17be e8f6 2dbe cbfe a6bd

gc2.weight f4 [32, 2]
-0.08420747 0.57132584 -0.63895047 -0.2772417 -0.2178536 0.051218487 -0.25409818 0.025216233
0.597115 -0.17834759 -0.59570074 -0.6736878 0.05966589 -0.1370506 -0.0031960523 -0.08515219
-0.35518298 0.23752497 0.2601004 -0.121391006 0.3644444 0.013062284 -0.009971119 -0.4925838
-0.54779273 0.33000055 -0.5365232 0.6930519 -0.5659128 0.5515358 0.103221074 -0.38679716
0.65048605 -0.1060296 0.5683704 -0.5317555 0.4570136 0.644593 0.43266097 -0.0013865419
0.63946533 0.6752554 -0.42513636 -0.2459642 -0.24522248 -0.39337635 -0.48239306 0.62124634
0.033287622 0.21206614 -0.2690066 -0.49869713 0.26366785 0.21672192 0.40491283 -0.0152173
-0.5430386 -0.42548716 0.6001494 -0.26418787 -0.00021458037 0.25999984 -0.34266913 0.54582036
00000000: f774 acbd 6942 123f 4292 23bf a0f2 8dbe
00000010: 0415 5fbe 7aca 513d 2819 82be 4692 ce3c
00000020: 87dc 183f c0a0 36be d87f 18bf ce76 2cbf
00000030: 3864 743d fe56 0cbe dc74 51bb 4564 aebd
00000040: 8bda b5be bf39 733e e12b 853e d99b f8bd
00000050: 7598 ba3e 3103 563c e85d 23bc f233 fcbe
00000060: 253c 0cbf d5f5 a83e 9659 09bf d96b 313f
00000070: a9df 10bf 7331 0d3f 9265 d33d 470a c6be
00000080: 4186 263f 0c26 d9bd b980 113f 2121 08bf
00000090: b0fd e93e 0c04 253f bd85 dd3e a0bc b5ba
000000a0: 00b4 233f 8add 2c3f 79ab d9be 0ade 7bbe
000000b0: 9a1b 7bbe a068 c9be 39fc f6be 000a 1f3f
000000c0: 9a58 083d de27 593e 3cbb 89be 3b55 ffbe
000000d0: 79ff 863e 5aec 5d3e bc50 cf3e fb51 79bc
000000e0: 9404 0bbf 74d9 d9be 64a3 193f a243 87be
000000f0: fb00 61b9 b31e 853e 5472 afbe e2ba 0b3f

gc2.bias f4 [2]
0.16748989 0.10056734
00000000: 7882 2b3e 40f6 cd3d
