gcn_model.pth (torch, 2063 bytes, 4 tensors)

gc1.weight f4 [2, 16]
000000 59 d5 49 3d 30 81 a7 b9 9e 63 dc 3a ad 65 a2 3c
       0.04927573 -0.00031948974 0.0016814356 0.019823873
000010 62 09 c2 3c a8 13 b7 b9 ca 03 e1 3c a1 2f d7 3c
       0.023686115 -0.00034919125 0.027467627 0.026267828
000020 1a 76 e5 3c d9 d0 89 3d ff 0f 3b bc f0 64 24 bb
       0.028010417 0.06729288 -0.011417388 -0.0025084578
000030 1e f5 db 3b 7b 3c c9 b3 54 e6 ce bc 97 dd cb 3c
       0.00671257 -9.370793e-08 -0.025256313 0.024885936
000040 fd 28 11 be 41 6e 3b b9 d8 86 a6 bc 55 c8 09 bd
       -0.14175792 -0.00017874782 -0.02032797 -0.033638317
000050 c9 13 9e bd b3 4e 7b bb 42 a0 b6 bd db 92 90 bd
       -0.077186175 -0.003834647 -0.089172855 -0.070592605
000060 e4 5b 9f bd 05 24 88 3d 75 09 e8 bb a4 fd 81 ba
       -0.077811986 0.06647495 -0.0070812055 -0.000991751
000070 7f ba ca 3c c9 63 af b3 be 8b 1e bc 1b f3 cc 3c
       0.024747131 -8.167223e-08 -0.009676872 0.025018265

gc1.bias f4 [16]
000000 b0 29 70 bd 7a be 7f be 52 a7 27 3e 18 59 6d bd
       -0.058633506 -0.24975005 0.16372421 -0.057946295
000010 80 36 0c 3d a6 56 5c 3e 10 49 28 bd 58 70 74 3d
       0.034231663 0.21517429 -0.041085303 0.05967745
000020 88 81 75 be 80 5f ec 3c 70 b7 84 bd 7c 02 49 3e
       -0.23975194 0.028854132 -0.064803004 0.19629854
000030 b8 40 1a bd 00 d4 ed ba de 18 02 3e 40 7d 46 bc
       -0.037659377 -0.0018144846 0.12704799 -0.012114823

gc2.weight f4 [16, 2]
000000 ce 55 01 3f 2c 03 25 3f a6 14 2c 3e d4 a8 b9 3c
       0.5052155 0.64457965 0.16804752 0.022663511
000010 2f f4 9b 3e f0 98 d5 be 26 c7 35 3d 70 55 57 be
       0.30459735 -0.41718245 0.044379376 -0.21028686
000020 7a 0f fb be b8 d0 0a 3f 2e c4 23 39 0d 79 97 b6
       -0.49035245 0.5422473 0.00015617974 -4.514243e-06
000030 f1 3d 09 3f ae 2b 5d be 2a 4f 1a 3f 32 72 c9 3e
       0.5361014 -0.21598694 0.60277045 0.39344937
000040 49 e7 27 3e 04 5b e8 3e 7e 68 09 3e 7a a1 09 3e
       0.16396822 0.4538194 0.13418767 0.13440505
000050 d0 b8 14 3e 93 5d 80 14 f1 8c 6f 80 17 b3 9c bd
       0.14523625 1.2961606e-26 -1.02443e-38 -0.07651346
000060 b9 e0 e9 3e 33 ca 02 bf 08 1e 88 bb e9 e9 df bc
       0.45679262 -0.5108978 -0.0041539706 -0.027333217
000070 84 d9 52 3e 1f 25 88 3e 30 33 5f bd 37 5c 21 3f
       0.20590788 0.2659082 -0.054492176 0.63031334

gc2.bias f4 [2]
000000 7e f5 e1 3e 00 2c 9e bb
       0.44132608 -0.0048270226
