gcn_model.pth (torch, 2383 bytes, 4 tensors)

gc1.weight f4 [2, 32]
0.19033231 -0.21871434 -0.21839936 0.25874862 -0.073441945 -0.13434638 0.06331062 -0.06684511
-0.08229412 0.19080468 0.06377077 0.34979242 0.061928958 -0.104611225 0.19964534 0.19722411
0.19939643 -0.096920274 -0.25644407 0.19310276 0.26051635 0.1852424 0.18390132 0.059051123
0.18754458 0.15078616 0.15652668 0.20582244 0.18850929 0.04675085 -0.097843006 0.045626316
-0.20576407 0.3273429 0.32930616 -0.1374194 0.24046399 0.38004416 -0.24627604 0.20991895
0.2640272 -0.20914371 -0.24574342 0.0698564 -0.2401058 0.31950995 -0.21474876 -0.08908303
-0.091263145 0.3004439 0.3811381 -0.0836957 -0.13921294 -0.20324387 -0.20185527 0.098560095
-0.2023958 0.18769854 -0.056287922 -0.60290915 -0.20300521 -0.2081055 0.30738804 0.13253295
00000000: 79e6 423e a7f6 5fbe 15a4 5fbe b37a 843e
00000010: bb68 96bd 1992 09be 00a9 813d 17e6 88bd
00000020: d289 a8bd 4d62 433e 409a 823d fe17 b33e
00000030: 38a9 7d3d 693e d6bd d46f 4c3e 1ef5 493e
00000040: 942e 4c3e 237e c6bd a34c 83be bbbc 453e
00000050: 6662 853e 2fb0 3d3e a150 3c3e 97df 713d
00000060: b00b 403e b067 1a3e 8848 203e 1ec3 523e
00000070: 9408 413e d27d 3f3d ea61 c8bd a9e2 3a3d
00000080: d1b3 52be 7d99 a73e d19a a83e acb7 0cbe
00000090: 313c 763e 2695 c23e c92f 7cbe fef4 563e
000000a0: 932e 873e c529 56be 2aa4 7bbe df10 8f3d
000000b0: 4bde 75be cf96 a33e 19e7 5bbe 2a71 b6bd
000000c0: 2ce8 babd c8d3 993e 8824 c33e a768 abbd
000000d0: d68d 0ebe 291f 50be 26b3 4ebe e0d9 c93d
000000e0: d840 4fbe 0c34 403e 2a8e 66bd 4158 1abf
000000f0: 99e0 4fbe 9c19 55be f761 9d3e b8b6 073e

gc1.bias f4 [32]
0.1636432 0.11074008 0.14150377 -0.10633039 -0.17285432 0.052637994 -0.033818796 0.019467488
-0.100862525 -0.10077461 -0.17483275 0.0136953 0.16491957 0.0024509877 0.115541235 -0.17136998
-0.1487208 -0.14505786 -0.1459113 -0.087917164 0.0020181984 -0.13784795 -0.084944524 -0.029278934
0.041730523 -0.10876854 0.11134489 -0.17254871 0.038979575 0.16766743 -0.010470822 -0.15619236
00000000: 1592 273e b2cb e23d 5de6 103e bfc3 d9bd
00000010: b900 31be f09a 573d 9485 0abd 487a 9f3c
00000020: 0391 cebd eb62 cebd 5b07 33be 4062 603c
00000030: ade0 283e c0a0 203b e2a0 ec3d 9d7b 2fbe
00000040: 444a 18be 0c8a 14be c669 15be ea0d b4bd
00000050: c043 043b 0328 0dbe 65f7 adbd 60da efbc
00000060: a0ed 2a3d 0ac2 debd ca08 e43d 9cb0 30be
00000070: 0ca9 1f3d 03b1 2b3e d08d 2bbc e4f0 1fbe

gc2.weight f4 [32, 2]
0.60663545 -0.53456014 -0.4412927 0.4421235 -0.4388842 0.4506372 -0.7883149 0.5930901
0.4350468 -0.6710085 0.21986656 -0.4166583 0.41739362 -0.44260898 0.36091682 -0.6514892
0.3647892 -0.49306914 0.65113235 -0.66880774 0.55850476 -0.51351094 0.40861174 0.46838164
0.4930916 -0.3374705 0.3501844 -0.33797124 0.4033764 -0.40369537 -0.42846295 0.42852762
-0.3952523 0.45092124 0.3665915 -0.3275342 -0.469057 0.58222884 -0.33724657 0.62736636
-0.7016428 0.7564041 0.5472781 -0.5783445 0.74530506 -0.42305064 -0.12906148 0.119199835
0.6472477 -0.5625963 -0.40732852 -0.11354803 -0.36645922 0.3271706 0.37859353 -0.4569862
0.6004353 -0.72954947 0.22941148 -0.23055023 0.30926874 -0.30907655 -0.44636557 0.10505362
00000000: 764c 1b3f efd8 08bf 1ef1 e1be 035e e23e
00000010: 6eb5 e0be ebb9 e63e 01cf 49bf c1d4 173f
00000020: 74be de3e 37c7 2bbf b324 613e 3d54 d5be
00000030: 9eb4 d53e a59d e2be 17ca b83e ffc7 26bf
00000040: a6c5 ba3e 8f73 fcbe 9cb0 263f fc36 2bbf
00000050: 2bfa 0e3f 7475 03bf 8f35 d13e b8cf ef3e
00000060: 8176 fc3e efc8 acbe 5f4b b33e 910a adbe
00000070: 5a87 ce3e 29b1 cebe 7f5f dbbe f967 db3e
00000080: 825e cabe 26df e63e e2b1 bb3e 90b2 a7be
00000090: 3d28 f0be f30c 153f 95ab acbe 159b 203f
000000a0: dd9e 33bf b3a3 413f 6b1a 0c3f 630e 14bf
000000b0: 50cc 3e3f 189a d8be b128 04be 0b1f f43d
000000c0: 06b2 253f 5006 10bf 5d8d d0be df8b e8bd
000000d0: 8ba0 bbbe e882 a73e 03d7 c13e 18fa e9be
000000e0: 21b6 193f c1c3 3abf d8ea 6a3e 5c15 6cbe
000000f0: 7958 9e3e 483f 9ebe 078a e4be 5a26 d73d

gc2.bias f4 [2]
0.040058315 -0.25645548
00000000: 3014 243d 224e 83be
