gcn_model10000BatchLR0.0001SCHED.pth (torch, 3032 bytes, 4 tensors)

gc1.weight f4 [2, 32]
00000000: fcce 86bd 9f41 003c c1b2 8fbd 13c7 ed3d
00000010: 2fe3 3b3d 0792 f0bd e9c4 213e 5288 7fbb
00000020: 2e96 063e 161d 10be 9227 803d 2b87 d53d
00000030: 5c01 923d 05a9 c6bd f686 72bb d886 21bc
00000040: c10e ef3d 0ae4 053e 84ee f8bb 4726 df3d
00000050: 448d e8bd aeef 173e c22f 8b3d 0ab9 923d
00000060: 1804 0abd e25b be3d 5607 673c 1e86 263d
00000070: e88f c4bb ae8c fc3d 9174 d3bd 7232 22be
00000080: c5f1 e5bd b3f9 9d3d f3d4 ccbc 164a 18be
00000090: 4e83 a4bd 0ab2 a0bd 7d0d fbbd 6549 74bd
000000a0: 0bd0 e53d e80c 0abe f933 f5bd edde e4bd
000000b0: 564c b7bc 318e c33d 02e6 0e3e 4ccd 0e3e
000000c0: 55ea 14be dfde b3bd d995 08be 49d4 9cbd
000000d0: af40 f6bd d64e 07bc 255d e1bd 6818 2dbd
000000e0: e661 6abd 3343 b23d 25c4 54bd d553 233d
000000f0: e8d0 263c b6b9 abbd e4ba e8bd f094 26be
-0.06582448 0.007828145 -0.070165165 0.11610236 0.045870956 -0.117466025 0.15797772 -0.0038991165
0.13143227 -0.14073595 0.062575474 0.10426172 0.071291655 -0.09700207 -0.0037006713 -0.009858809
0.11672736 0.13075271 -0.0075967927 0.10895973 -0.11355069 0.14837524 0.067962185 0.071642
-0.03369531 0.09294869 0.01410087 0.040655248 -0.0059986003 0.1233152 -0.10324968 -0.15839556
-0.112277545 0.07713642 -0.025003886 -0.14872012 -0.08032857 -0.07846458 -0.12258432 -0.059640307
0.11221322 -0.13481486 -0.119728036 -0.11175332 -0.022375267 0.09548605 0.13954929 0.13945502
-0.14542516 -0.08782744 -0.13338412 -0.07657678 -0.12024056 -0.008258542 -0.11004094 -0.042259604
-0.05722227 0.087042235 -0.05194487 0.03987487 0.010181643 -0.08385031 -0.113637716 -0.16267753

gc1.bias f4 [32]
00000000: c0fa dbbb 4285 ff3d e436 7cbd 463c a73d
00000010: 804f 813b 3c36 19bd 9862 dfbc da48 e8bd
00000020: 7202 e63d cc47 17bd 9227 c03d 9c2b 333d
00000030: 68c7 42bd 0c50 59bd 407b e1bb 9c27 5a3d
00000040: 9bb9 b9bd 6380 0f3e 809c 553b 2c6c 13be
00000050: b402 00be a395 0f3e de3f a83d 800e 02bb
00000060: 002a 903d 6e0c f13d 4037 483d 919b 33be
00000070: c300 25be a001 5ebc d80f 95bc 3723 15be
-0.0067132413 0.12476589 -0.061575785 0.08165793 0.0039462447 -0.037405238 -0.027268693 -0.1134202
0.11230935 -0.036933705 0.093825474 0.04374276 -0.04755345 -0.053054854 -0.0068811476 0.05326043
-0.090686046 0.1401382 0.0032594502 -0.14396733 -0.12501031 0.14021926 0.08215307 -0.0019845068
0.07039261 0.11769949 0.048880816 -0.17539813 -0.16113572 -0.013550192 -0.018196031 -0.14564215

gc2.weight f4 [32, 2]
00000000: e6b2 483e c958 063f ce54 733e 7c23 fbbe
00000010: 5388 08bf 652a 09be 1cd6 723e 77b3 d43e
00000020: 7dec b7be 7cd3 7c3d e678 0a3f 1224 e83e
00000030: c086 9fbe 4796 f1bd 1660 ffbd 058d 05bf
00000040: f029 8bbe 00cb c3be 8b37 a23e 74cf 513e
00000050: 8b8d 33bd 9a6a b93e 5281 e7be 6c09 083f
00000060: f7e0 c43e 28aa 30be ff44 0d3f 3cdf ce3e
00000070: b78f d23c 6903 f03e 370a bfbe 4e49 a6be
00000080: 3b80 2fbc 453c 2e3e 4506 de3e 6b61 073f
00000090: 9b64 243f 333b 223f 6b88 043f df36 d43e
000000a0: 524d 2b3f 57bd 02bf d3a2 99be 3358 18bf
000000b0: 6205 71be cec2 0bbe d9bc f03d b6cc 24be
000000c0: 4465 d23e 6493 263c b27c f1be 8258 fcbe
000000d0: bb3f 243f 82f2 2bbf 8f57 b5be fc23 573d
000000e0: a27d eb3e 2f11 2bbf 4051 edbe eea4 bf3e
000000f0: 075c 153f c9f7 203f 8e14 16bf 85be 043f
0.19599494 0.52479225 0.23762819 -0.4905051 -0.53333014 -0.13395078 0.23714489 0.4154317
-0.35922614 0.061725125 0.54090726 0.4534002 -0.31157494 -0.11796241 -0.12469499 -0.52168304
-0.27180433 -0.38240814 0.31683 0.20489293 -0.043836158 0.36214143 -0.4521585 0.53139377
0.38452885 -0.1725241 0.55183405 0.4040469 0.025703294 0.46877602 -0.3731248 -0.32477802
-0.010711725 0.17015179 0.43364158 0.52883023 0.6421601 0.6337158 0.5177066 0.41448113
0.66914856 -0.5107016 -0.30007038 -0.5950958 -0.2353721 -0.13648531 0.1175477 -0.16093716
0.41092885 0.010166977 -0.47165447 -0.49286276 0.64159745 -0.6716691 -0.35418364 0.05252455
0.45994288 -0.66823095 -0.4635105 0.3743052 0.5834355 0.6287809 -0.58625114 0.5185321

gc2.bias f4 [2]
00000000: 72e1 b93e cbe4 f0be
0.36304814 -0.47049555
