gcn_model.pth (torch, 4000 bytes, 4 tensors)

gc1.weight f4 [2, 100]
0	0x3ded3ddc	0.11584064
1	0xbf3964ea	-0.7241961
2	0x80024ce7	-2.11258e-40
3	0x3ec67a2e	0.3876509
4	0x3e015f11	0.12633921
5	0x3ea3a2e0	0.319602
6	0x3e066475	0.13124259
7	0xbea4e6b6	-0.32207268
8	0x3e1858ca	0.1487762
9	0x3f1c4434	0.6104157
10	0x3de8ba3a	0.11363645
11	0xbf8b5ed9	-1.088832
12	0x80010779	-9.4516e-41
13	0x800212c6	-1.90406e-40
14	0x3e9a2356	0.30105084
15	0x3e8673eb	0.26260313
16	0x3ee760e7	0.45191118
17	0x3d4a605f	0.049408313
18	0x3e096db2	0.13420752
19	0x3e8ab827	0.27093622
20	0x3e9f7d9c	0.3115052
21	0xbf60eb82	-0.87859356
22	0x3f1bba93	0.60831565
23	0x3ef74dbf	0.48301503
24	0xa28b27d1	-3.7718183e-18
25	0x3ecd052d	0.4004301
26	0x3f18d8af	0.5970563
27	0x3eb17794	0.34661543
28	0x3e9f0551	0.31058744
29	0x3e2b1cd8	0.16710222
30	0x3ddb873a	0.10719152
31	0xbefd5071	-0.49475434
32	0x3eb658a0	0.3561449
33	0x3e847eeb	0.2587808
34	0x3de8c32f	0.11365353
35	0x3e9191bf	0.28431508
36	0xbec01a33	-0.37519988
37	0x3d9b7490	0.07590592
38	0xbf333ee4	-0.7001784
39	0x3edaedbd	0.42759505
40	0x3e241bd1	0.16026236
41	0x3ec61d32	0.3869415
42	0x3e7c6621	0.24648334
43	0xbfb2895b	-1.3948168
44	0xbdc80f76	-0.09768574
45	0xbe905409	-0.28189114
46	0x8006a5db	-6.10511e-40
47	0xbe3e2cca	-0.18571773
48	0x3e468fde	0.19390818
49	0x3d9f7813	0.07786574
50	0x3eba6feb	0.36413512
51	0x3e05713e	0.1303148
52	0x3e3071c3	0.17230897
53	0x3f0dd037	0.55395836
54	0xbf7d265e	-0.9888667
55	0x3db86334	0.090032965
56	0xbf95b094	-1.1694512
57	0x8003f372	-3.62838e-40
58	0x80061710	-5.59286e-40
59	0xa6e0b9bb	-1.5593465e-15
60	0xbf4920f7	-0.78565925
61	0xbf91b05e	-1.1381948
62	0x3f1a28bb	0.602184
63	0x3e0fefce	0.14056322
64	0x3ea3a753	0.31963596
65	0x3f31172c	0.6917598
66	0x3f09e811	0.5386973
67	0xbf26cf43	-0.65160006
68	0x3e961f43	0.29320726
69	0x80049ca8	-4.2354e-40
70	0x800805b7	-7.36734e-40
71	0x3e8c04c4	0.27347386
72	0x8005c50b	-5.29863e-40
73	0x3d7cca9b	0.061716657
74	0x8000b253	-6.397e-41
75	0x3e08f854	0.1337598
76	0x3e38d01c	0.18048137
77	0x3efd57e6	0.49481124
78	0x3ea0ef3e	0.31432527
79	0x3eca35ea	0.39494258
80	0x800775bf	-6.85088e-40
81	0xb58b590d	-1.0382224e-06
82	0x3f14c079	0.5810619
83	0x8006ebf5	-6.35658e-40
84	0xb9fa6e7f	-0.00047766042
85	0x3ea93fb6	0.3305642
86	0xbd9030c1	-0.07040549
87	0xbebb7c02	-0.36618048
88	0xbce4463e	-0.027865525
89	0xbf5696ea	-0.83824027
90	0x3dd6ab0c	0.10481843
91	0x8f87b7a7	-1.3382768e-29
92	0x3ddcdb1f	0.107839815
93	0xb31a8e2e	-3.598523e-08
94	0x3e1c6765	0.15273817
95	0x3e8cdf88	0.2751429
96	0x3ecfb3a5	0.40566745
97	0x3ebb76b9	0.36614016
98	0x3f212b01	0.62956244
99	0x3ea52401	0.3225403
100	0xbe39c5fe	-0.18141934
101	0x3e75b063	0.23993067
102	0x80008284	-4.682e-41
103	0xbcddfd57	-0.02709834
104	0xbe941338	-0.28920913
105	0x3dad116e	0.0845059
106	0x3d9b5990	0.07585442
107	0x3e250486	0.16115007
108	0xbeabd452	-0.33560425
109	0xbf5ff224	-0.8747885
110	0xbe866b48	-0.26253724
111	0x3ed1d51e	0.40982908
112	0x80059048	-5.10936e-40
113	0x80054ca5	-4.86672e-40
114	0xbf354dee	-0.70822036
115	0x3d83d865	0.06437758
116	0x3f1a5e87	0.6030049
117	0xbe0facbd	-0.14030738
118	0xbe994e77	-0.29942676
119	0x3d1c32ef	0.03813451
120	0xbf148c53	-0.5802662
121	0x3ea51181	0.32239917
122	0xbed5b406	-0.4173891
123	0xbe7aa5e0	-0.24477339
124	0x00002467	1.3059e-41
125	0xbd2ed1aa	-0.04268042
126	0xbf5e6364	-0.8687041
127	0xbf454cb5	-0.7707017
128	0xbf34e764	-0.70665574
129	0xbec06fba	-0.3758524
130	0xbe6fa99c	-0.23404545
131	0x3ea32c53	0.31869754
132	0xbd1741c8	-0.03692797
133	0x3d5c59c9	0.053796563
134	0xbe416722	-0.18886998
135	0x3d35d90f	0.044396456
136	0x3e77d93f	0.24203967
137	0x3e199a56	0.1500028
138	0x3e73823b	0.23780148
139	0xbe3a3490	-0.18184114
140	0xbeb92df0	-0.3616786
141	0xbd83fbd3	-0.06444516
142	0x3d7c7e28	0.06164375
143	0x3eac710b	0.33679995
144	0x3e621914	0.22079879
145	0x3e1fc5ba	0.1560277
146	0x800506a2	-4.61557e-40
147	0x3d886422	0.06659724
148	0xbeff6bae	-0.4988684
149	0x3e81f0cb	0.25379023
150	0xbf1c4717	-0.61045974
151	0xbe97bdb1	-0.2963691
152	0xbec18f22	-0.37804514
153	0xbf52b363	-0.8230497
154	0x3eb54568	0.35404515
155	0xbe44a99d	-0.19205327
156	0x3e8c4c45	0.2740194
157	0x80070db9	-6.47771e-40
158	0x80005159	-2.9182e-41
159	0x00080184	7.35228e-40
160	0x3e88f3a5	0.26748386
161	0x3ed62d31	0.41831353
162	0xbf569b9b	-0.83831185
163	0xbe968fdb	-0.29406628
164	0xbf361741	-0.7112923
165	0xbf7503cd	-0.95708925
166	0xbf915638	-1.1354437
167	0x3e5f50ae	0.2180812
168	0x3d98ee64	0.074673444
169	0x80014fe6	-1.20498e-40
170	0x800c70fe	-1.14256e-39
171	0xbf254baa	-0.6456858
172	0x800bfd73	-1.101111e-39
173	0x3e28d40e	0.16487142
174	0x8002b175	-2.4733e-40
175	0xbe8cc9d1	-0.27497724
176	0x3da5ca39	0.080952115
177	0xbf3d97af	-0.74059576
178	0x3c484122	0.01222256
179	0xbcd70feb	-0.026252707
180	0x80014194	-1.1536e-40
181	0xa4f49bb8	-1.0608193e-16
182	0xbf556731	-0.8336058
183	0x800388bc	-3.24558e-40
184	0x3802a8f2	3.1151758e-05
185	0xbf395e5b	-0.724096
186	0x3e7f351b	0.24922602
187	0x3dc3df1c	0.09564039
188	0x3e9d5947	0.30732176
189	0x3e978f45	0.29601493
190	0xbe7f6b31	-0.24943234
191	0x8feeea28	-2.3558806e-29
192	0xbe831aa0	-0.2560625
193	0xad9633b2	-1.7075983e-11
194	0xbea7d03d	-0.3277606
195	0xbf217ad2	-0.63078034
196	0xbf235739	-0.63804966
197	0xbee40837	-0.44537517
198	0xbf5c1979	-0.8597637
199	0xbefba8ca	-0.49152213

gc1.bias f4 [100]
0	0xbcb0cb88	-0.021581426
1	0xbd5c27e3	-0.053748976
2	0xbd93f3d5	-0.07224242
3	0xbdaca386	-0.08429627
4	0xbd6122f7	-0.054964986
5	0x3d241502	0.040059097
6	0x3d152236	0.03640958
7	0xbd5e0bb0	-0.054210365
8	0x3d8c94c3	0.068643115
9	0xbd416cb7	-0.04722282
10	0xbd8b7795	-0.06809918
11	0xbc591d28	-0.01325158
12	0x3d0d24e6	0.034459017
13	0xbdab948d	-0.08377943
14	0xbd205d93	-0.03915174
15	0xbc633258	-0.013866983
16	0xbd41983d	-0.047264326
17	0xbd8aad88	-0.0677138
18	0xba9aac80	-0.0011800677
19	0x3d43ee3a	0.047834612
20	0x3da8b0a9	0.0823682
21	0xbdb23418	-0.08701342
22	0xb9bb9a00	-0.00035782158
23	0xbda4d438	-0.0804829
24	0xbbc21680	-0.0059230924
25	0x3d6d9e4a	0.058012284
26	0xbcf7cdcc	-0.030249499
27	0x3a9f4540	0.0012151375
28	0xbd952818	-0.07283038
29	0x3c9b8454	0.018983997
30	0x3d68b846	0.05681636
31	0xbd2fa7ba	-0.042884566
32	0xb9c79a00	-0.00038070977
33	0x3c831bcc	0.016004466
34	0xbb2e3fc0	-0.002658829
35	0xbda2de60	-0.07952571
36	0xbda584b5	-0.080819525
37	0x3d255052	0.040359803
38	0x3d9563e7	0.072944455
39	0xbd1e5780	-0.038657665
40	0x3d840ca9	0.06447727
41	0x3ccb6a74	0.024831034
42	0xbd1e31ba	-0.03862164
43	0x3c0bd1d8	0.008533917
44	0x3dbf5ea9	0.09344227
45	0xbdb68bd3	-0.08913388
46	0x3bdd2ed0	0.0067499653
47	0x3b434500	0.0029795766
48	0x3d035942	0.032067545
49	0xbb6410c0	-0.0034800023
50	0x3d67bd7a	0.056577183
51	0xbcb402f4	-0.021974064
52	0xbd845df2	-0.06463231
53	0x3da6b819	0.081405826
54	0xba3bd100	-0.00071646273
55	0x3cf9c754	0.030490555
56	0xbd91e525	-0.07123784
57	0x3c486d90	0.012233153
58	0x3c88aaac	0.016682945
59	0xbd0f5d6a	-0.035001196
60	0x3cc17b68	0.023618415
61	0x3c93c920	0.01804024
62	0x3d2f6666	0.042822264
63	0xbd81031e	-0.06299423
64	0xbd9c70a5	-0.07638673
65	0x3d7c72e2	0.061633
66	0xbc9d18b4	-0.019176818
67	0xbd4d7847	-0.050163534
68	0x3db4adb9	0.088221975
69	0xbd49d65a	-0.049276687
70	0xbcf87cac	-0.030332886
71	0xbcaf2814	-0.021381415
72	0x3ae44a00	0.0017417073
73	0x3be3fb20	0.0069574267
74	0xbd6d6ca0	-0.05796492
75	0xbd514aaa	-0.051096596
76	0xbba7a2d0	-0.0051158443
77	0xbd98accd	-0.07454834
78	0x3dc48bd1	0.0959698
79	0x3b7f06a0	0.003891386
80	0x3c856918	0.016285464
81	0xbd14686c	-0.036232397
82	0xbdc53fe3	-0.09631326
83	0x3cd01734	0.02540169
84	0xbd76f7c0	-0.060294867
85	0x3da3f859	0.08006353
86	0xbd183e5c	-0.037168846
87	0xbd7bcb0d	-0.06147294
88	0xbc010aa8	-0.007876076
89	0x3da86041	0.08221484
90	0x3d5036de	0.050833575
91	0x3d4f7c7e	0.050655834
92	0x3ccfbab4	0.025357582
93	0xbd959093	-0.07302966
94	0x3da36e99	0.07980079
95	0xbd451573	-0.04811616
96	0x3d507186	0.050889514
97	0x3c9ba074	0.018997408
98	0xbd4ef2f3	-0.050524663
99	0x3d8704fb	0.06592747

gc2.weight f4 [100, 2]
0	0xbe629be7	-0.22129785
1	0xbcc8a694	-0.024493493
2	0x3ea758f9	0.32685068
3	0xbea7560a	-0.3268283
4	0x0002986c	2.3835e-40
5	0x8002560f	-2.14543e-40
6	0x3ecc3383	0.3988305
7	0xbe5227aa	-0.20522943
8	0xbeb1f503	-0.34757242
9	0x3e9ddbd8	0.3083179
10	0x3e5cafec	0.21551484
11	0xbe5c6a68	-0.21524966
12	0x3df5c217	0.1199991
13	0xbdf5c275	-0.1199998
14	0xbe6d3e0e	-0.23168203
15	0x3e561c28	0.20909178
16	0xbe9c0297	-0.30470726
17	0x3e7d5e15	0.2474292
18	0xbf332054	-0.69971204
19	0x3f337713	0.7010357
20	0xbe9fe95f	-0.31232736
21	0x3e8e429c	0.27785194
22	0x3f695f6b	0.9116122
23	0xbf688949	-0.9083448
24	0x000464ef	4.0355e-40
25	0x8008d4e6	-8.11058e-40
26	0x0002f1a4	2.70355e-40
27	0x8001809d	-1.37973e-40
28	0xbefba344	-0.49148
29	0x3eea1300	0.4571762
30	0x3e9a95c2	0.3019238
31	0xbe14856f	-0.14504026
32	0xbf088bcb	-0.5333831
33	0x3f088bcb	0.5333831
34	0xbd8d2192	-0.06891169
35	0x3d8c1d9f	0.06841587
36	0xbe2e4c14	-0.17021209
37	0x3ec03b6f	0.37545344
38	0x3e81101d	0.25207606
39	0xbe8edacb	-0.279013
40	0xbf52ca75	-0.82340175
41	0x3f673154	0.90309644
42	0x3f79c850	0.9757128
43	0xbf79c761	-0.97569853
44	0x3fae9047	1.363778
45	0xbf8dcd05	-1.1078192
46	0x3f005b09	0.5013891
47	0xbeff8226	-0.49903983
48	0x00018e58	1.42899e-40
49	0x80009ad6	-5.5545e-41
50	0x3efd1379	0.4942892
51	0xbe112ba0	-0.14176798
52	0xbf3fba23	-0.748934
53	0x3f239c5c	0.6391046
54	0xbf278122	-0.65431416
55	0x3f278134	0.65431523
56	0xbf236d9e	-0.6383914
57	0x3ee032ef	0.4378886
58	0xbe316d7f	-0.17326926
59	0x3e313a02	0.17307284
60	0xbe7ed53b	-0.24886028
61	0x3e32c72c	0.1745879
62	0x3e02efda	0.12786809
63	0xbdf9c7b0	-0.121962905
64	0x3ee9f5e7	0.4569542
65	0xbe3f32a8	-0.18671668
66	0x3e06a9f6	0.13150772
67	0xbe06c10f	-0.13159584
68	0xbda2d5ec	-0.079509586
69	0x3daf8bd2	0.085715905
70	0x3e8d3aed	0.2758402
71	0xbe25fbdc	-0.16209358
72	0x3d947c03	0.07250216
73	0xbd916a01	-0.07100297
74	0x3d8f9507	0.070108466
75	0xbd8f7600	-0.070049286
76	0x3f050348	0.5195813
77	0xbf050346	-0.5195812
78	0x3f141d98	0.57857656
79	0xbefef82a	-0.4979871
80	0xbe740a5c	-0.23832077
81	0x3eb1c39f	0.3471956
82	0x3e7eac54	0.24870425
83	0xbf0a07d5	-0.539182
84	0x3e485260	0.19562674
85	0xbe585f6f	-0.21130155
86	0x3f5b8941	0.8575631
87	0xbf5b7fe3	-0.85742015
88	0xbe6f4b2e	-0.23368523
89	0x3e6f4b2f	0.23368524
90	0xbec5b9b0	-0.3861823
91	0x3d3d0344	0.046145692
92	0x0007282c	6.5726e-40
93	0x8003d75e	-3.52766e-40
94	0xbd8f3fc0	-0.06994581
95	0x3d8f3fbd	0.06994579
96	0xbea04ee9	-0.31310204
97	0x3e9fcd22	0.3121119
98	0xbe3c0f3f	-0.18365191
99	0x3e3c0f3e	0.1836519
100	0xbf4891de	-0.78347576
101	0x3ed5f608	0.4178927
102	0xbe843d72	-0.2582813
103	0x3ea0077f	0.3125572
104	0xbe22b429	-0.15889038
105	0x3e22faa8	0.1591593
106	0xbf6ee89a	-0.9332367
107	0x3ecab267	0.39589235
108	0x3f301ce6	0.68794096
109	0xbf242fed	-0.6413563
110	0x3d0b041e	0.033939473
111	0x3e08402c	0.1330573
112	0x3f1a131a	0.60185397
113	0xbf1a0380	-0.6016159
114	0x800839fe	-7.55488e-40
115	0x0007f132	7.29373e-40
116	0x0009f9f2	9.16183e-40
117	0x800de67f	-1.276548e-39
118	0x800c0f22	-1.107455e-39
119	0x000caeb8	1.164703e-39
120	0x3f0d5ce7	0.5521988
121	0xbf0d5ce9	-0.55219895
122	0x3f416568	0.7554536
123	0xbf41d541	-0.75716025
124	0xbf496c37	-0.7868075
125	0x3f496c39	0.7868076
126	0xbe997a04	-0.29975903
127	0x3d9c6a22	0.07637431
128	0xbefa7d21	-0.4892359
129	0x3efa7a68	0.48921514
130	0xbf4c1914	-0.79725766
131	0x3f5acec7	0.8547177
132	0xbf8aabb4	-1.083365
133	0x3f8afd12	1.0858481
134	0x3e9acd85	0.30234924
135	0xbe9ada2c	-0.30244577
136	0x3e5e624e	0.21717188
137	0xbe5561f4	-0.20838147
138	0x000b3581	1.029384e-39
139	0x800acd09	-9.91908e-40
140	0x80010a3c	-9.5507e-41
141	0x80048b43	-4.173e-40
142	0xbf276c10	-0.65399265
143	0x3e84d273	0.2594181
144	0x0005f51b	5.47105e-40
145	0x8005a73a	-5.19167e-40
146	0x3d416008	0.047210723
147	0xbd4b435b	-0.049624782
148	0x8000bcfb	-6.7793e-41
149	0x00016656	1.28547e-40
150	0xbe189351	-0.14899947
151	0x3e797436	0.24360737
152	0x3e749a25	0.23886926
153	0xbe749a2f	-0.23886941
154	0xbf31ee9f	-0.6950473
155	0x3f2a57b5	0.6654008
156	0x3e67062b	0.22560947
157	0xbe5dd91b	-0.2166485
158	0x3eebdc3b	0.4606646
159	0xbe896614	-0.26835692
160	0x0001f4f5	1.7971e-40
161	0x00039aa7	3.30985e-40
162	0x00025c34	2.16747e-40
163	0x80029970	-2.38714e-40
164	0xbf45a12b	-0.7719905
165	0x3f4932d1	0.78593165
166	0x80038081	-3.21605e-40
167	0x0003806f	3.2158e-40
168	0x2e56be1f	4.8826828e-11
169	0xaf31b75a	-1.6163196e-10
170	0xbf001df1	-0.50045687
171	0x3f001cda	0.50044024
172	0xbd163f7a	-0.03668163
173	0x3d1553f5	0.03645702
174	0x3e375089	0.17901815
175	0xbe806aa0	-0.25081348
176	0xbdc96791	-0.09834207
177	0x3dc97452	0.098366395
178	0x3f63983e	0.8890418
179	0xbf6361c6	-0.88821065
180	0xbe878f0c	-0.26476324
181	0x3dc4be64	0.09606627
182	0x0f9d8bc6	1.5535234e-29
183	0x8f9d8bc6	-1.5535234e-29
184	0xbe46441b	-0.19361918
185	0x3e168ead	0.14702864
186	0x2fbda69a	3.4497277e-10
187	0xafbd2f62	-3.4412567e-10
188	0xbea13fb0	-0.31493902
189	0x3e983b4f	0.2973275
190	0xbecb117e	-0.39661783
191	0x3f06acaf	0.52607244
192	0xbf2de099	-0.67920834
193	0x3f2de09a	0.6792084
194	0xbec9c613	-0.3940893
195	0x3ec9c5db	0.39408764
196	0xbf2c2c65	-0.6725524
197	0x3f2c38f7	0.6727442
198	0xbea71a62	-0.32637316
199	0x3ea79070	0.32727385

gc2.bias f4 [2]
0	0xbe8d90fb	-0.27649674
1	0xbe78ff18	-0.2431606
