gcn_model.pth (torch, 2063 bytes, 4 tensors)

gc1.weight f4 [2, 16]
0	0xbde794fd	-0.11307714
1	0xbe7b4a5b	-0.24540083
2	0xbe7d6e31	-0.24749066
3	0xbe910b3a	-0.28328878
4	0xbdb39558	-0.087687194
5	0xbe17c3c1	-0.14820768
6	0xbdecf954	-0.11570993
7	0x3eb844ab	0.3598989
8	0x3e68d53e	0.22737595
9	0x3e9e571c	0.30925834
10	0xbe2b34f1	-0.16719414
11	0x3e3a7521	0.18208744
12	0xbe8e3070	-0.2777133
13	0x3e6c0e36	0.23052296
14	0xbe0143af	-0.12623475
15	0x3ea2df93	0.318112
16	0x3e200f9f	0.15630959
17	0x3e89f333	0.2694336
18	0x3e8ab275	0.27089277
19	0x3e9b0877	0.30279896
20	0x3e098862	0.13430932
21	0x3e41baf3	0.18918972
22	0x3e2050d6	0.15655836
23	0xbe914e31	-0.28379968
24	0xbe861ef1	-0.2619548
25	0xbe8dd1bb	-0.27699074
26	0x3e460ff6	0.19342026
27	0xbe20c0d4	-0.15698558
28	0x3e98a265	0.29811397
29	0xbe7d9aa3	-0.2476602
30	0x3e2e8174	0.1704157
31	0xbe9abe6a	-0.302234

gc1.bias f4 [16]
0	0xbc59efc0	-0.01330179
1	0x3cc4f760	0.024043739
2	0x3e0d7798	0.13815153
3	0xbd3d7e98	-0.046263307
4	0x3dd1d738	0.10246128
5	0x3e27b3d0	0.16377187
6	0x3e29c318	0.16578329
7	0x3de82324	0.113348275
8	0x3e4d5b58	0.20054376
9	0x3d6b2ee0	0.05741775
10	0xbc31d6c0	-0.010854423
11	0xbb173680	-0.0023073256
12	0x3d433600	0.04765892
13	0x3dca7dc8	0.09887272
14	0xbe62eb68	-0.22160113
15	0xbdcbe5a4	-0.0995591

gc2.weight f4 [16, 2]
0	0x3f020001	0.50781256
1	0xbf01f33e	-0.50761783
2	0x3f65183b	0.894901
3	0xbf225d3b	-0.6342351
4	0x3f41ebdb	0.7575051
5	0xbf379f30	-0.71727276
6	0x3f33739f	0.700983
7	0xbf591ba7	-0.8480782
8	0x3edf76f2	0.43645436
9	0xbee54d00	-0.4478531
10	0x3ee8cdd3	0.4546953
11	0xbee8b41c	-0.45449913
12	0x3f0c49b0	0.5479994
13	0xbf0c4619	-0.5479446
14	0xbeec8060	-0.46191692
15	0x3f5d3ae1	0.8641797
16	0xbf772519	-0.9654098
17	0x3f525e70	0.8217535
18	0xbf1ba162	-0.60793126
19	0x3f6251ec	0.8840625
20	0x3ef4e974	0.4783436
21	0xbef50c57	-0.47860977
22	0xbf55130d	-0.83232194
23	0x3f551a68	0.8324342
24	0x3f7c8355	0.98637897
25	0xbf79c840	-0.9757118
26	0xbf69c98b	-0.91323155
27	0x3f602ea6	0.8757118
28	0x3ee93571	0.45548585
29	0xbee97008	-0.45593286
30	0xbf651a50	-0.89493275
31	0x3f585013	0.84497184

gc2.bias f4 [2]
0	0xbeed4d52	-0.46348053
1	0x3f0d7e71	0.5527106
