gcn_model2Groups.pth (torch, 3408 bytes, 4 tensors)

gc1.weight f4 [2, 32]
000000 da bb 23 3f 93 b3 99 bd be b4 0f 3f 1b 12 21 bd
       0.63958514 -0.07504954 0.56135166 -0.039323907
000010 73 e7 28 3f 6f a9 46 3f 9e ed 81 bf 52 1b 30 bd
       0.65978163 0.77602285 -1.015064 -0.042994805
000020 d9 ac b5 bd 52 50 96 bd 25 0e 31 3f ed f4 2f 3f
       -0.08870859 -0.07339539 0.6916221 0.687331
000030 63 e1 2d 3f 85 82 96 be 05 b6 30 3f 1c fb 1b bd
       0.6792204 -0.29396453 0.6902774 -0.038081273
000040 5d 52 8c bf e8 56 2f 3f df 30 20 bf 43 22 10 3f
       -1.0962635 0.68491983 -0.6257457 0.5630228
000050 cb 5a 28 3f 4f ef 3f 3f 8d a6 48 bf fb 3f fd be
       0.6576354 0.7497453 -0.78379136 -0.49462876
000060 e7 1b a9 bf 82 d6 a7 be 80 90 46 3f 7e 6e b0 bd
       -1.321164 -0.32780844 0.7756424 -0.08614825
000070 a8 0d 6c 3d 0b fd ca bf c1 6f d5 be 6a 55 35 3f
       0.05763021 -1.5858473 -0.41686824 0.70833457
000080 c3 ec ce be f6 c3 0c 3f 58 49 7e bf 84 63 10 3f
       -0.4041501 0.5498651 -0.99330664 0.5640185
000090 1a 15 54 bf 55 21 c9 bf 81 85 43 3f 43 60 01 3f
       -0.828447 -1.5713297 0.76375586 0.5053751
0000a0 13 d1 0f 3f 1b e3 21 3f 96 56 09 bf 11 3d 06 bf
       0.56178397 0.6323716 -0.53647745 -0.5243693
0000b0 d2 84 00 bf 9d 93 27 3f 1b c4 00 bf 12 bc fd 3e
       -0.5020267 0.65459615 -0.50299233 0.4955755
0000c0 0c 61 47 3f 5a 3f 0b bf 51 ba 01 3f 15 63 81 bf
       0.77882457 -0.5439354 0.5067492 -1.0108362
0000d0 20 e9 11 bf 67 ef 06 be 70 88 35 3f 1a 6c 30 3f
       -0.56996346 -0.13177262 0.7091131 0.6891495
0000e0 0d 19 4f 3f 3b d7 23 3f 0b d2 cd bf c8 ac d0 3d
       0.808976 0.6400029 -1.6079725 0.101892054
0000f0 56 66 1d 3f 24 54 57 3f c9 b2 ba 3e d5 64 2d bf
       0.6148428 0.84112763 0.36464527 -0.6773198

gc1.bias f4 [32]
000000 c7 71 23 be 65 d5 24 3e 52 be fe 3d 18 23 91 3c
       -0.15961371 0.16097029 0.124386445 0.01771693
000010 c8 09 a4 bc ec 4a 0e 3d b5 8e ed bd e1 63 b3 bd
       -0.020024195 0.03473942 -0.11599485 -0.08759285
000020 5b 1a 33 3e c9 d7 18 be c2 d2 13 be 70 f9 3b 3d
       0.17490523 -0.14926066 -0.14435866 0.04589218
000030 ef b6 21 3e 72 d8 8a 3d 2e f2 a4 3d 40 8e 9c 3c
       0.1579244 0.06779565 0.080540046 0.019110799
000040 e3 1f 22 be 78 ea af bd 22 e5 9f 3d a0 d9 b8 3c
       -0.15832476 -0.08589643 0.078073755 0.02256471
000050 5b 8b 1b 3e 6e c7 a1 3d 8e f9 22 be ba 72 c5 3d
       0.15189879 0.07899366 -0.1591551 0.09641023
000060 1a 00 c3 3d 00 2e ac 3a 4d db 24 3e 1f 22 25 3e
       0.09521504 0.0013136268 0.16099282 0.16126297
000070 b1 8d 1e be 1a bf c8 3d fd fa 00 3e b9 7e 26 3e
       -0.15483738 0.09802075 0.12595744 0.16259278

gc2.weight f4 [32, 5]
000000 54 ed 00 3c 05 26 d8 3e 88 d2 26 3d 30 62 81 3f
       0.007869083 0.42216507 0.040728122 1.010809
000010 fb fb 97 bf 5e 76 18 3f 7d 4d 14 3f 27 6e 11 bf
       -1.1873773 0.59555614 0.5793074 -0.56808704
000020 57 7b 9b 3e c0 0f ab 3e 4d 88 27 c0 ac ee 09 c0
       0.30367538 0.33410454 -2.6176941 -2.1551924
000030 47 d8 5d 3f 91 d7 08 3e d5 5d 10 40 c3 7d e0 3d
       0.8665814 0.13363482 2.255727 0.10961487
000040 32 27 09 3f c8 04 44 bf 41 9b 8e 3a 57 58 81 3c
       0.5357543 -0.76569796 0.001088001 0.015789194
000050 6f 79 74 bf 90 3f 8a bf a3 06 f0 3f bd 9c 62 be
       -0.9549779 -1.0800648 1.8752025 -0.22130103
000060 c5 16 de bd 04 de 6f c0 a1 2e 49 c0 99 e9 87 3f
       -0.10844187 -3.7479258 -3.143471 1.0618163
000070 be e3 f9 3c 2d 3d 4c 40 38 d7 3d 3f 5b f9 f5 be
       0.030504104 3.1912339 0.7415652 -0.48041806
000080 b2 cf ee 3f 04 79 4d c0 87 c0 4f 3f 3d 86 fc 3e
       1.8657134 -3.2105112 0.8115315 0.49321166
000090 a6 e0 8c 3e df 51 72 bf a0 bc 0f 3e fb fc 9c 3d
       0.27515143 -0.94656175 0.14036798 0.0766544
0000a0 4a 61 50 3e c9 b9 bd 3e a3 cb 6e bf 33 98 a6 bd
       0.20349613 0.37055805 -0.93279475 -0.081344984
0000b0 f5 0e 01 3c 63 5b b5 3e 5b ae f9 3e 6d 81 10 bf
       0.007877101 0.35421285 0.48765835 -0.5644749
0000c0 b4 49 7a 3e ed 9e 6d 3e 65 54 09 3e 7f 04 75 3e
       0.24442178 0.23205157 0.134111 0.23927496
0000d0 21 7e 42 3f 02 fc c2 3e 2f 9d c8 bf 43 91 b0 3e
       0.7597371 0.38082892 -1.5672969 0.34485826
0000e0 1e ff e1 3d db 38 48 3f ff 24 14 3f 59 08 c3 bf
       0.11034988 0.78211755 0.5786895 -1.5236923
0000f0 6a e4 92 3e 8d 6c 95 3e 33 9e 34 3f 17 76 2a 3f
       0.2868989 0.2918438 0.7055389 0.6658644
000100 57 e3 bc bf 13 01 c3 3e 2b e4 c5 3e 80 48 53 bf
       -1.4756879 0.38086757 0.3865064 -0.825325
000110 e4 e7 0d 3e 62 b2 3c 3f ea 88 7e 3e d2 7e 13 3e
       0.1385799 0.7370969 0.24856916 0.14403847
000120 e9 97 f1 3e f7 43 2f 3f 93 81 b6 bf 69 07 1f 3e
       0.4718621 0.6846308 -1.4258293 0.1553017
000130 85 f7 db 3e ac 51 6c bf 3a 87 60 3c a3 11 be 3a
       0.4296228 -0.9231212 0.0137041155 0.0014501106
000140 51 99 82 3f a8 b8 0e be c2 e2 1f 40 a3 1f 59 c0
       1.0203038 -0.13937628 2.4982152 -3.392556
000150 4f 68 09 3f 06 e7 36 3e 84 88 cb bd 98 79 42 3f
       0.5367479 0.17861566 -0.09938148 0.7596679
000160 27 87 4a 3e 2a 33 e8 bf ad fe 8d 3d 12 69 5f 3e
       0.19778119 -1.8140614 0.06933341 0.21817425
000170 62 4e ba 3f d5 29 ee bf 09 c3 08 3e be fc 1c c0
       1.455517 -1.8606516 0.1335565 -2.4529262
000180 17 35 02 c0 c1 96 1f 3f dc 39 8f 3e 2c d9 13 40
       -2.0344903 0.6233941 0.2797383 2.3101301
000190 d3 f6 46 3e ac 3b 48 bd c0 cc aa 3f 49 15 d0 3d
       0.19430093 -0.048885033 1.3343735 0.1016031
0001a0 55 eb c3 bf 4f 8b fe 3c 0d ca 1c 3e b0 da fb be
       -1.5306193 0.031072287 0.15311451 -0.49190283
0001b0 db d3 37 3f 49 8b 51 be 13 8a 28 bd 92 86 e1 be
       0.7180764 -0.2046329 -0.041147303 -0.44047982
0001c0 a9 22 65 3f 10 96 31 c0 a1 ea cc 3f 4c 9a 08 bf
       0.8950601 -2.774784 1.6009103 -0.5336044
0001d0 92 1b 81 be ef 88 56 bf 78 3a 13 bf d7 11 e2 3f
       -0.25216347 -0.83802694 -0.5751109 1.7661694
0001e0 da e5 98 3f e8 2b 2c bf 92 cf 47 40 7d bf 54 c0
       1.1945145 -0.67254496 3.122044 -3.3241875
0001f0 36 62 10 3d ac b0 49 be 8e 08 e1 3e 9e 0b 8a bf
       0.03524991 -0.19696301 0.4395184 -1.0784795
000200 b8 6c 70 be 85 c8 1e 3f 95 2c 65 c0 c8 00 44 c0
       -0.23478973 0.6202472 -3.580846 -3.0625477
000210 7f 7d 81 3f 44 b3 ab 3e 61 f1 52 40 4b 3e 49 3d
       1.0116423 0.33535206 3.2959826 0.049131673
000220 1a c0 d4 bc d2 7d 14 3d 00 c1 1d be 93 87 9b bc
       -0.025970507 0.036252804 -0.15405655 -0.018985545
000230 14 7a fc 3e c5 27 40 be 71 4f 40 bf 41 67 b9 3d
       0.49311888 -0.18765171 -0.7512122 0.09052897
000240 4c b5 a0 bd f1 7f 5a 3f c2 b3 ea be 4f 65 7d 40
       -0.0784708 0.85351473 -0.4584027 3.9593084
000250 fe 51 54 c0 7c a8 13 bf 3a 94 34 be f5 5b 6b 3e
       -3.3175044 -0.5767896 -0.17634669 0.22984298
000260 c7 a9 79 3f 47 f1 a7 bf 68 84 7f 3e 72 10 43 3e
       0.97524685 -1.3120507 0.24952853 0.19049242
000270 bb 7d 83 be da 38 c7 3f 67 49 5d be 4c 2d a3 bf
       -0.25681862 1.5564225 -0.21610032 -1.2748199

gc2.bias f4 [5]
000000 a0 77 25 3e 78 7a 2a bd 84 20 03 3e 7d 2d 6c be
       0.16158915 -0.0416207 0.12805372 -0.23064227
000010 ee e4 b2 3e
       0.34940284
