16/gcn_model10000BatchLR1e-05SCHED.pth (torch, 2704 bytes, 4 tensors)

gc1.weight f4 [2, 16]
00000000: f1cc 813d 4c64 cdbd dc9a 383e ca10 4c3e
00000010: 1c81 9639 390f 91bc 65de 7a3e aa60 76be
00000020: 115c ec3c 868c d73d 3dd4 043e da21 1c3e
00000030: d7d2 2dbe 6747 1fbe 950a 1a3b c968 be3d
00000040: 9e97 15bd 5de1 a6bc 43f0 953d 2608 a63c
00000050: a5a7 b3bc 0dcb da3d cd1e f23d 06a9 533e
00000060: 245d 253e b8bc 01be d1a9 0f3e 64b9 d63c
00000070: e4ee 08be 11f5 cd3c 0384 6ebe d9d8 693e
0.063379176 -0.10028896 0.18027824 0.1992828 0.00028706423 -0.017707454 0.244989 -0.24060312
0.028852494 0.105248496 0.12971587 0.15247288 -0.1697496 -0.15554582 0.0023504843 0.0929733
-0.036521547 -0.020371133 0.07321217 0.020267557 -0.021930525 0.1068326 0.11822281 0.20669946
0.16148812 -0.12669647 0.14029624 0.026211448 -0.1337238 0.02514127 -0.23292546 0.22836627

gc1.bias f4 [16]
00000000: 4e16 793e 34ba 8f3d 3608 17be 94f7 95bd
00000010: 800b dc3d ea6a 5fbe 6062 183d c4fd 023e
00000020: d03d 95bd ece7 b6bd 2c42 5ebe 7016 ca3c
00000030: 80b8 aa3d 2c62 843d ae28 163e 6ed9 06be
0.24324915 0.07017937 -0.14749226 -0.073226124 0.10744381 -0.21818128 0.037203193 0.12792116
-0.072871804 -0.08930954 -0.2170493 0.024668902 0.08335972 0.06464037 0.14663956 -0.1316888

gc2.weight f4 [16, 2]
00000000: 46d1 d3bd 6278 b9bd 7f9f 15bf 6f9e 22bf
00000010: b427 d8bc 4514 2a3e 2917 9ebe 6e00 1bbf
00000020: db87 90be 29f2 cabe ba78 22bf 2ed1 a53e
00000030: f8e0 2d3f c841 013f c955 163b 7b99 10bd
00000040: d573 2ebf 0127 0e3f 7533 003f fab2 9fbe
00000050: 0079 d2be d2bc 9dbe 36cd fbbe e435 513e
00000060: 1479 163f 97a9 05bf 3947 f43e c38b 9d3e
00000070: 4a24 2ebe 024c 5f3e dcb6 8bbe 8336 02bf
-0.1034265 -0.09056164 -0.58446497 -0.63523 -0.02638612 0.16609295 -0.30877045 -0.6054753
-0.2822865 -0.3963788 -0.63465464 0.32386154 0.679214 0.50491 0.0022939316 -0.03530262
-0.68145496 0.55528265 0.5007852 -0.31191236 -0.4110794 -0.3080812 -0.4918 0.20430714
0.587785 -0.522119 0.4771059 0.30770692 -0.1700603 0.21806338 -0.27287948 -0.5086443

gc2.bias f4 [2]
00000000: 4567 8fbe 1da1 053f
-0.28008476 0.52198964
