16/gcn_model10000BatchLR1e-05.pth (torch, 2664 bytes, 4 tensors)

gc1.weight f4 [2, 16]
00000000: 0b84 933d c228 1fbe e855 54bd 11a1 f9bc
00000010: c94f 133e 9bb1 d23d 901f 5e3e fb56 98bd
00000020: 1e74 c3bd 93e4 ab3d 7f14 fabd b968 3e3e
00000030: 7281 363e 14f6 6abe 3bf6 6e3e a2d3 6d3e
00000040: 3b0e db3d e901 2ebe b0cf 0c3d 0375 033e
00000050: c11a 253e c205 6cbe 0500 74bd fc99 9ebd
00000060: c3ef 7ebe eefa 053e a90a adbd 0853 58be
00000070: 7c5c 5fbe 4318 3e3e ab22 42be 3679 1ebe
0.072029196 -0.15542892 -0.05183974 -0.03047231 0.14385904 0.10287782 0.21691728 -0.07438465
-0.09543632 0.083932064 -0.122109406 0.18594636 0.17822817 -0.22945434 0.23336117 0.23225263
0.106960736 -0.16992916 0.034377754 0.12837605 0.16123487 -0.23049071 -0.05957033 -0.07744214
-0.2489615 0.13084003 -0.08449299 -0.21125424 -0.21812624 0.18563943 -0.18958537 -0.15475926

gc1.bias f4 [16]
00000000: d04c 5bbd ec09 5f3e d0d8 44bd 0468 84bd
00000010: 1a73 5f3e d82a 73be 2e1c 133e c456 373e
00000020: 14c4 453e 58c4 0fbd 581e d83d 64eb 67be
00000030: 8002 f7bb c0b8 043d be86 14be 988b febd
-0.05354005 0.21781129 -0.04805833 -0.06465152 0.21821252 -0.23746812 0.14366218 0.17904192
0.19313079 -0.035099357 0.105526626 -0.22648388 -0.00753814 0.032402754 -0.14504525 -0.12428969

gc2.weight f4 [16, 2]
00000000: 751f ff3e 6c8b fabe 0d4c f73e 3abf 15bf
00000010: 425f 253e b7b5 92be e08c a03d 09c7 0c3f
00000020: 13e9 62be b43c d93e 76a3 3ebe 3172 153f
00000030: bb6a 103f fe52 96be 8f7e 60be faba 053f
00000040: 7650 123e 4994 c63d dd29 09b8 2bb9 b8be
00000050: 8bca 133f 8bc1 afbe ad1f 29be e21d 153f
00000060: 6eae 0dbf 965d a8be 3aed 1abf 6eb7 0abf
00000070: f204 99bd f1cc 03bd c13a a4be 115a 2a3f
0.49828687 -0.48934495 0.4830021 -0.58494914 0.16149619 -0.28654262 0.0783937 0.54991204
-0.22159223 0.42429125 -0.18617043 0.5837737 0.5641286 -0.29360193 -0.21923278 0.5223843
0.14288506 0.09696252 -3.2702334e-05 -0.36078772 0.5773093 -0.3432735 -0.1651599 0.5824872
-0.55344284 -0.328839 -0.6051823 -0.5418614 -0.07471646 -0.03217787 -0.32076076 0.6654368

gc2.bias f4 [2]
00000000: 9cef 623e e385 20bf
0.22161716 -0.62704295
