16/gcn_model10000BatchLR0.0001.pth (torch, 2672 bytes, 4 tensors)

gc1.weight f4 [2, 16]
000000 91 ba f4 3b 66 35 6e bc bb 8b fa bd b1 da 60 be
       0.0074685295 -0.014539098 -0.12233683 -0.21958424
000010 31 58 dd bc 23 00 7b bb 94 c8 1f 3b d9 ad 12 be
       -0.027019592 -0.0038299642 0.0024381028 -0.1432413
000020 3d b0 95 3c d8 bf 98 be 1f 6a 52 be 9b d2 ca 3d
       0.018272514 -0.29833865 -0.20548294 0.09903451
000030 5a 6b 64 be 8e 27 db 3b 8a 2e 18 be b2 85 f4 3c
       -0.22306576 0.006688065 -0.14861503 0.029848907
000040 5f cf 5c bd 18 16 a9 bd 70 25 16 3d 9a b9 8b 3d
       -0.053908702 -0.08256167 0.036656797 0.0682251
000050 6c 5d 0f 3c e0 ce ea bc dc ca ae bc 2a 01 fe bd
       0.008750301 -0.028663099 -0.021336965 -0.12402566
000060 4c a5 82 be 17 97 d7 3d f2 dc 24 be cd 3d 62 be
       -0.25516737 0.10526865 -0.16099909 -0.22093888
000070 81 9b b5 3d 20 27 09 bd 9d 6c 52 be ae 76 31 be
       0.08867551 -0.033484578 -0.20549245 -0.17330429

gc1.bias f4 [16]
000000 4e 60 2a be 00 3e ab bc a0 29 3e 3e a6 ec 60 be
       -0.166383 -0.020903587 0.18570566 -0.21965274
000010 c8 af 69 3d 88 0a 56 bd ea 61 2c be 2c 4d 3f 3e
       0.057052404 -0.052256137 -0.16834226 0.18681782
000020 c4 2a 7d be 10 b1 1a 3d 64 70 c6 3d b8 59 7b be
       -0.24723345 0.037766516 0.096894056 -0.24545944
000030 3e 41 76 be 18 ad 7a be 00 b0 6f be 90 ec bf bc
       -0.24048325 -0.24480093 -0.23406982 -0.023428231

gc2.weight f4 [16, 2]
000000 71 67 12 3c 77 6c 2a 3e d8 77 0f 3e d8 5b 15 be
       0.008935795 0.16642939 0.1401056 -0.14585817
000010 22 4b 7c 3e 98 01 ef 3c bc e6 f0 be 0a 31 b2 be
       0.24638036 0.029175565 -0.47051036 -0.3480304
000020 19 2f 73 3e 98 e9 96 3e 8a 35 18 bf 40 b6 c4 3e
       0.23748435 0.29475093 -0.59456694 0.38420296
000030 cc 62 1e 3e f2 49 79 be 1f ba 5a be a7 65 ea bd
       0.15467376 -0.24344614 -0.21360062 -0.1144517
000040 84 ce 2d 3e b0 83 e2 3e cd 2c 29 be e5 55 52 bd
       0.1697331 0.44241095 -0.16520996 -0.051351447
000050 2f fa 41 be 85 0a 93 3d 6a 83 db bd 06 bb dc bd
       -0.18943094 0.07179741 -0.107184246 -0.107778594
000060 73 b4 ee 3e 72 ba d0 3e 7f d9 f3 3e c0 71 e7 3e
       0.46622047 0.40767246 0.47626874 0.45203972
000070 49 59 77 3e 25 f0 1f 3d ef c6 5b be 41 39 98 bd
       0.24155153 0.03904738 -0.21462606 -0.07432795

gc2.bias f4 [2]
000000 14 31 b7 be 38 f6 19 bf
       -0.3577963 -0.60141325
