16/gcn_model10000BatchLR0.001SCHED.pth (torch, 2704 bytes, 4 tensors)

gc1.weight f4 [2, 16]
000000 a8 4d 33 be b1 20 a2 3a 99 22 29 bc f5 19 d0 bc
       -0.17510092 0.0012369362 -0.01032319 -0.025403002
000010 1c 5b 2f be d5 9e a0 3c 74 96 20 3c 1b 74 10 be
       -0.17124599 0.019606987 0.009801496 -0.1410679
000020 2c 25 c2 bd b6 4d 28 3d 71 66 1c 3c 60 19 25 3e
       -0.09479746 0.041089736 0.009545908 0.16122961
000030 70 05 31 be ea 4d c5 3d 4a 8a 2c bd 7f 31 ef 3c
       -0.1728723 0.096340016 -0.04212407 0.029198406
000040 c3 6d 9a 3d 6b 22 0a bd b8 cf 81 ba 8d 13 f8 bb
       0.07540467 -0.03372423 -0.0009903824 -0.00757069
000050 06 8f 92 3d 81 2a fd bd 90 99 c0 bd 91 8a 18 be
       0.07156186 -0.123616226 -0.0940429 -0.14896609
000060 11 52 0f 3d a4 bf 70 be b9 64 56 bd 94 ce 80 bd
       0.034990374 -0.23510605 -0.05234215 -0.06289402
000070 8e c2 eb 3d c7 2f b5 3d 08 14 c0 bd 2e 6a 4f be
       0.11511718 0.088470034 -0.09378821 -0.20255348

gc1.bias f4 [16]
000000 c0 ee e8 bd a8 a3 c3 bd 48 a9 cb bd 00 e5 75 3c
       -0.11373663 -0.09552699 -0.09944397 0.015008211
000010 24 81 1b 3e 7c e7 33 be 38 de f7 3d 0c 73 ae bd
       0.15185982 -0.17568773 0.12102932 -0.08518037
000020 70 58 a3 bd 5c 9e e2 3d b8 bf 2f 3d 7a b8 21 be
       -0.079758525 0.11065361 0.042907447 -0.15793028
000030 32 6e 28 3e 60 b4 49 3d 74 83 b5 bd fc f3 06 be
       0.16448286 0.049244285 -0.08862963 -0.1317901

gc2.weight f4 [16, 2]
000000 d4 b8 0c bf 39 93 b0 be ad df b3 3e 50 df 61 bd
       -0.54969525 -0.34487322 0.3513159 -0.055144608
000010 9a 6f c8 3e aa b8 9d 3e 13 4d 96 bc 8f 7d dd 3a
       0.39147645 0.3080495 -0.018347299 0.0016898381
000020 59 e2 b2 3c 7d a4 4a be 42 39 19 bf af d4 c2 3d
       0.021836447 -0.1978931 -0.59852993 0.095132224
000030 d7 18 a5 3e 33 cd 2f 3e 50 a1 f1 be 83 84 71 3d
       0.32245514 0.17168121 -0.47193384 0.058964264
000040 2e 03 0e 3f 8a a9 a4 3e da 65 a0 3e 7f 82 30 bc
       0.554736 0.32160598 0.31327707 -0.0107733
000050 02 71 6c 3c 70 41 15 3e c6 7e 45 37 d8 7e 45 37
       0.01443124 0.14575744 1.1771632e-05 1.1771648e-05
000060 c4 9e 66 be 5c 9c 66 be fe cd 4b be fe cd 4b be
       -0.22521502 -0.22520584 -0.19902799 -0.19902799
000070 0e a4 f8 3e ec 75 07 3f f7 d6 0c 3f db 77 96 3d
       0.48562664 0.5291431 0.5501551 0.07347079

gc2.bias f4 [2]
000000 bf 86 32 bf 20 a0 85 3e
       -0.69736856 0.26098728
