16/gcn_model20000BatchLR0.0001SCHED.pth (torch, 2712 bytes, 4 tensors)

gc1.weight f4 [2, 16]
0	0x3c4eb569	0.012616494
1	0x3d48b351	0.048999134
2	0x3e246159	0.1605276
3	0xbe721e9d	-0.2364449
4	0xbe863ee2	-0.2621985
5	0xbe33d54f	-0.1756184
6	0xbb47cef6	-0.0030488349
7	0x3e44a537	0.1920365
8	0x3d4a8d1c	0.04945098
9	0xbdb57397	-0.08859938
10	0xbe3bbd7a	-0.18333998
11	0x3e0d6233	0.13806991
12	0xbe24188f	-0.16024993
13	0xbdd22d29	-0.1026252
14	0xbe2da73c	-0.16958326
15	0x3e02e805	0.12783821
16	0x3def5742	0.11686565
17	0xbe174cf6	-0.14775452
18	0xbe881ef8	-0.26586127
19	0xbe7267cd	-0.2367241
20	0x3db49b10	0.08818638
21	0xbe0ca38e	-0.13734266
22	0xbd69a3c8	-0.05704096
23	0xbdaec04d	-0.08532772
24	0xbe7019aa	-0.2344729
25	0xbe1e17bf	-0.15438746
26	0x3e44fb0a	0.19236389
27	0xbd3073ef	-0.043079313
28	0xbe4d0e9c	-0.20025104
29	0x3dbadbe6	0.091239735
30	0x3c725abf	0.014792143
31	0xbe6a0442	-0.22853187

gc1.bias f4 [16]
0	0xbd8a3d04	-0.06749919
1	0xbe38c274	-0.18042928
2	0xbe520a74	-0.205118
3	0x3e5438f4	0.20724851
4	0x3d692128	0.056916386
5	0xbd3212f8	-0.04347512
6	0xba884100	-0.0010395348
7	0x3e3b8ace	0.18314669
8	0x3e5dd8ce	0.21664736
9	0x3de20208	0.11035544
10	0x3e4f5a7e	0.20249364
11	0x3e7d7a90	0.24753785
12	0x3dfb7c68	0.12279588
13	0xbc52d3c0	-0.012867868
14	0xbdffe790	-0.12495339
15	0x3e76c694	0.24099189

gc2.weight f4 [16, 2]
0	0x3ede7587	0.4344904
1	0x3f09c871	0.53821474
2	0xbd97c5bd	-0.074107625
3	0x3edb8d7a	0.42881376
4	0x3f24f627	0.644381
5	0xbf0aae73	-0.5417244
6	0x3ef6d150	0.48206568
7	0x3e42f4ad	0.19038649
8	0xbefd5e34	-0.49485934
9	0xbf2dca43	-0.6788675
10	0xbee16646	-0.4402334
11	0x3f1e86e4	0.61924577
12	0xbea80268	-0.32814336
13	0xbdc99c31	-0.09844244
14	0xbf1b846d	-0.6074894
15	0xbf0c4b72	-0.5480262
16	0xbe1aa1bf	-0.15100764
17	0xbf01a3b0	-0.5064039
18	0xbea12435	-0.31472936
19	0xbe4160f6	-0.18884644
20	0x3f27fbd4	0.65618634
21	0x3ed3678d	0.4128994
22	0x3f1594e2	0.584303
23	0x3d83021d	0.063968875
24	0x3e5642d4	0.2092393
25	0x3ecf8244	0.40529072
26	0xbdde6bdc	-0.10860416
27	0x3f03e64c	0.5152328
28	0x3ea1f8c8	0.31635118
29	0xbed0d278	-0.40785575
30	0x3f07cb9c	0.5304506
31	0x3e7a6b54	0.24455005

gc2.bias f4 [2]
0	0x3e800720	0.25005436
1	0x3f227b7b	0.63469666
