16/gcn_model10000BatchLR1e-06.pth (torch, 2664 bytes, 4 tensors)

gc1.weight f4 [2, 16]
00000000: 14cd ecbd fbf4 0abe 3e6b c53d 6e20 163e
00000010: 124f d93c 6c45 4a3d 3c97 1dbd d673 43bd
00000020: d6d5 da3c 039a 10be 5ab4 143d f536 7b3d
00000030: bd6d f9bd 524a e7bc a948 bf3d 476a 2ebe
00000040: aef5 70be 2b54 0b3e 6edb fa3d 7165 4fbe
00000050: 9b26 09be c1d8 5ebe 9eab 463e d525 d1bd
00000060: 3817 cb3d 7fec 5a3e c1d4 2bbe 4740 90bd
00000070: 5334 1a3e 44b9 503e fd37 023e 86d1 f23d
-0.11562553 -0.13570015 0.096395954 0.14660808 0.026526961 0.049382612 -0.038474306 -0.04771789
0.026713293 -0.14121251 0.03630481 0.061331708 -0.12179134 -0.02823368 0.09340031 -0.17032729
-0.2353122 0.13606326 0.12248884 -0.2025354 -0.13393633 -0.21762373 0.19401404 -0.10212294
0.09916538 0.21379279 -0.16780378 -0.0704351 0.15059023 0.20383173 0.1271667 0.1185637

gc1.bias f4 [16]
00000000: 2097 ebbd 104f 3abd f8b0 853d a04c 6abd
00000010: b074 c73c 4c74 acbd 82f4 453e 3429 403e
00000020: 0098 1ebc a808 f73d 801f f23c 02ca 7d3e
00000030: 6c9e a73d 947d c13d 9a27 63be a060 423c
-0.11503434 -0.045485556 0.06527895 -0.05720198 0.024347633 -0.08420619 0.19331554 0.18765718
-0.009679794 0.12062198 0.029556036 0.24784091 0.081845134 0.0944778 -0.22183076 0.0118638575

gc2.weight f4 [16, 2]
00000000: ef63 043e 1840 3c3e 4d4b 27bf b390 febd
00000010: 61d7 1cbf 7e25 55be 2553 6f3e 2e24 2ebf
00000020: 9909 353e 1d59 d33c 3cd9 25be 2f0c 1b3f
00000030: 4825 38be bef2 77be b32a ba3a c5d5 473d
00000040: a036 e8bd c6aa 313e e281 3f3e 703e b53e
00000050: 980d dd3d 1232 0fbd 6e25 753e 3f07 05bf
00000060: ccd9 b43e 2bd0 1bbe f217 233f 3fdd 04bf
00000070: 7b37 27bf 9b6c 03bf 0f6d fb3e 087c 1e3d
0.12928747 0.18383825 -0.65349275 -0.12429943 -0.6126614 -0.20815083 0.23371561 -0.68023956
0.17679442 0.025799328 -0.1619615 0.60565466 -0.17982972 -0.24213693 0.0014203399 0.04878785
-0.11338544 0.17350301 0.1870189 0.353992 0.107936084 -0.03495986 0.2394006 -0.5196418
0.35322416 -0.15216129 0.6370841 -0.51900095 -0.6531903 -0.51337594 0.49106643 0.038692504

gc2.bias f4 [2]
00000000: 6812 be3d e822 eebd
0.092808545 -0.116277516
