16/gcn_model10000BatchLR0.0001SCHED.pth (torch, 2712 bytes, 4 tensors)

gc1.weight f4 [2, 16]
00000000: 8875 793c 7fd8 373e 73df d23d d7be 5dbe
00000010: ea13 4d3e 402d 383e 58a9 83be 497b 6c3e
00000020: e200 993d 3929 063e 8d6f 173e 7f66 f93d
00000030: 2408 c3bd 90e1 80be 810b b6bd 7426 0dbd
00000040: 1b3d abbc 276f 3bbe 0f39 1e3c dd2b 0abe
00000050: ddae 01bd e7df bebc 413f 3b3e aacc 1b3e
00000060: 7b3e e13d 4b89 15bd b9db 56bd fd07 71be
00000070: 3502 6cbe b27f 593e 4141 0dbe 2449 0e3e
0.015225776 0.1795368 0.10296526 -0.21654831 0.20027128 0.17986012 -0.25715137 0.23093905
0.074708715 0.13101663 0.14788647 0.12177753 -0.09523037 -0.2517209 -0.08888913 -0.0344605
-0.02090316 -0.1830412 0.0096571585 -0.13493295 -0.031660903 -0.023300124 0.18285848 0.15214792
0.10998245 -0.036507886 -0.052455638 -0.23538204 -0.23047717 0.21240118 -0.13794424 0.13895088

gc1.bias f4 [16]
00000000: 02e4 3cbe 4456 d03d a81c a23d b458 28be
00000010: a02b 763e 08d8 393e 9889 44bd a834 173e
00000020: 705e 723e 368c 2f3e 6069 353d ce75 25be
00000030: e07a 65bc 504d e4bd c0c9 64be 4c51 f1bd
-0.18446353 0.10172704 0.07915622 -0.16440088 0.24040079 0.18148816 -0.047982782 0.1476618
0.23668838 0.1714333 0.044289947 -0.1615822 -0.014006346 -0.11147559 -0.22342587 -0.11783084

gc2.weight f4 [16, 2]
00000000: 5c87 2abf afab 8c3e 6d0c 23bf d45a 10bf
00000010: a7aa ff3e d5d3 8e3e e239 1fbe b1bc 60be
00000020: 91d1 aebe 8196 4dbd 7db5 cf3e 333c a2be
00000030: 3923 523e 57da 7dbe eaa1 c23e 06b1 003f
00000040: db84 613e f5ef cc3e 5627 313f 616b b93e
00000050: ab71 08bf 749d e33e 40a2 483e 56b6 83be
00000060: 4c8a a03e 3625 733e 1fec 87be 8fdf e23e
00000070: 739b 0ebf 8d5a 613e d0a1 263e ab54 11bf
-0.6661279 0.27474734 -0.63690835 -0.5638859 0.49934885 0.2789599 -0.15549424 -0.2194698
-0.3414426 -0.05019236 0.40568152 -0.31686553 0.20521249 -0.24790321 0.38014156 0.50270116
0.22023337 0.40026823 0.69200647 0.36214736 -0.53298444 0.44456065 0.19593143 -0.2572505
0.31355512 0.23744664 -0.26547334 0.44311187 -0.55705947 0.22007199 0.16272664 -0.5676982

gc2.bias f4 [2]
00000000: a0b8 0f3e 5e1a 29bf
0.14035273 -0.6605586
