16/gcn_model10000BatchLR0.001.pth (torch, 2480 bytes, 4 tensors)

gc1.weight f4 [2, 16]
0	0xbd811133	-0.063021086
1	0xbd75feea	-0.060057558
2	0xbd67991a	-0.056542493
3	0xbd49ea14	-0.0492955
4	0xbd6a2a55	-0.057169277
5	0xbe5e0e05	-0.21685036
6	0xbd77d7c9	-0.060508523
7	0xbcbe57c5	-0.023235211
8	0xbe019452	-0.12654236
9	0xbcf76c3b	-0.030202975
10	0xbe2f8818	-0.1714176
11	0xbd03d426	-0.032184742
12	0xbd935e36	-0.07195704
13	0xbe5a2cd2	-0.2130616
14	0xbd1ebb8b	-0.038753074
15	0xbc583da0	-0.013198286
16	0xbdbfef18	-0.093717754
17	0xbe5dffdc	-0.21679634
18	0xbe1db5ab	-0.15401332
19	0xbd30d994	-0.04317625
20	0xbe0c0614	-0.13674194
21	0xbdd21a59	-0.10258932
22	0xbde57c8c	-0.11205396
23	0xbe16fce7	-0.14744912
24	0xbd87e50e	-0.066354856
25	0xbd95bbb1	-0.0731119
26	0xbc83e2bb	-0.016099324
27	0xbdfdd57f	-0.12394237
28	0xbe1b67ec	-0.15176362
29	0xbd1fd44c	-0.03902082
30	0xbd195863	-0.037437808
31	0xbd3b4872	-0.045723386

gc1.bias f4 [16]
0	0xbc3bf240	-0.011471331
1	0xbdee5dd0	-0.11638987
2	0x3d90b314	0.070654064
3	0xbe24c84c	-0.16092032
4	0xbda72be4	-0.08162668
5	0xbe2b34f4	-0.16719419
6	0xbde58df8	-0.11208719
7	0x3e4a6dfa	0.19768515
8	0x3cb06e10	0.021536857
9	0xbe35ce92	-0.17754582
10	0xbe19637e	-0.1497936
11	0xbc73ee60	-0.014888376
12	0xbd12e568	-0.03586331
13	0xbdf88fac	-0.12136778
14	0x3e74ff3e	0.23925492
15	0x3e5d6eca	0.21624294

gc2.weight f4 [16, 2]
0	0x3ecc9cd8	0.39963412
1	0xbde1b1c1	-0.11020232
2	0xbec01ff2	-0.37524372
3	0x3e28b6d1	0.16475989
4	0xbf26e765	-0.6519683
5	0x3f1712d7	0.5901312
6	0xbe76e0db	-0.24109213
7	0x3e959261	0.2921324
8	0xbe1e37db	-0.15450995
9	0x3e0e13b9	0.13874711
10	0xbeb50a7e	-0.35359567
11	0x3de94f27	0.1139205
12	0x3deaf86b	0.11473163
13	0xbf002137	-0.5005068
14	0x3d4d7112	0.05015666
15	0xbd06b23a	-0.032884814
16	0xbeeb7772	-0.45989567
17	0x3c7b437a	0.015335912
18	0xbeb0cac8	-0.3452971
19	0xbde019ba	-0.10942407
20	0xbedf9f0d	-0.43676034
21	0xbee5aadb	-0.44856915
22	0x3e847783	0.2587243
23	0x3f10516a	0.5637423
24	0x3e189f4e	0.1490452
25	0x3edd05f3	0.431686
26	0x3eeca2f4	0.46218073
27	0x3e299d40	0.16563892
28	0xbde384be	-0.11109303
29	0xbf1d4ebc	-0.61448264
30	0x3e9ae2ff	0.3025131
31	0x3e9adac6	0.30245036

gc2.bias f4 [2]
0	0x3f126ddf	0.571989
1	0xbdf84610	-0.12122738
